bat_seq_model.pth (torch, 14464 bytes, 4 tensors)

fc1.weight f4 [50, 30]
-0.18838611 0.09098156 -0.057002824 0.06137854 0.053859543 -0.017764565 -0.13726266 0.020404328
0.12640406 -0.084992945 0.05748925 0.018958237 -0.13756007 0.04989466 0.08961621 -0.03837183
0.16038294 -0.049447417 0.0031191243 0.039745457 -0.075192034 -0.12557667 0.14891055 0.15881072
-0.09764099 0.02480494 0.026712159 0.15248623 0.16377863 0.0869127 0.08256603 -0.09277248
-0.0038373636 0.1715441 -0.037738595 -0.12030186 -0.12459301 -0.01311951 -0.024656948 -0.049771097
-0.13323084 0.05890998 0.1289137 -0.15095758 0.101442434 0.0013605389 0.03489072 -0.08946576
-0.029008225 -0.011373488 -0.008947434 0.095017806 0.13316217 -0.04715261 0.11767236 0.11110853
-0.13396205 0.037711192 0.051819507 0.017792538 -0.15496759 -0.059692055 -0.06526671 0.0006152835
-0.038159918 -0.07891526 0.07723684 -0.14136988 -0.07641205 0.020929934 -0.06031463 -0.14051998
-0.16603914 0.18140893 -0.13678715 -0.06807847 0.11522754 -0.097381815 0.00206404 -0.101095386
0.039460566 -0.14287229 -0.042342387 0.05968422 -0.17355202 -0.026147155 -0.020887427 -0.020105058
0.14910994 -0.03464978 -0.050914004 0.1597992 0.12509607 0.15724152 0.15615943 -0.05307792
0.014007722 0.11158126 -0.024503605 0.11240166 -0.061159812 -0.062419716 -0.03442471 0.03747723
-0.1615137 0.09774567 -0.12852369 -0.048099436 0.06518329 -0.1625835 0.053039093 -0.12878051
0.038264126 -0.10741407 -0.052600168 0.17566934 -0.17121747 -0.044083115 0.06260718 -0.122148775
0.07596326 -0.13478914 -0.07550179 -0.09872378 0.010095644 0.032428753 -0.051187366 0.06435727
0.00093956623 -0.13501945 0.11939039 -0.0033267592 0.019942807 0.12222706 0.03714341 0.1496473
-0.15620133 0.11182246 0.1943126 -0.07966195 0.12661421 0.11473629 0.18033522 0.21188614
-0.0871575 0.15448582 0.15429607 0.09018869 0.13755903 -0.023180086 0.06115874 -0.07116121
-0.06290753 0.22001451 -0.015511545 0.20348506 0.10348525 0.15588205 -0.075603604 0.029384935
-0.045000155 0.06158752 0.00830791 0.22012664 -0.016853215 0.11739621 0.19366084 0.22167079
0.02359295 -0.026161768 0.14243263 -0.0647233 0.13990231 -0.05965832 0.2466324 0.051594134
0.043902904 0.15060467 -0.047962822 0.019482866 0.10187987 -0.14755523 -0.099243835 -0.12269467
0.06367292 0.00711461 -0.1818834 0.053031974 -0.09646659 0.03115091 -0.024150629 -0.055015836
-0.021802148 0.01864777 -0.010397834 -0.060789052 -0.10016643 0.06700093 0.18060543 -0.10791239
0.012386025 0.13675478 -0.04329846 0.15082951 -0.035504624 0.023364754 0.12373491 0.024330446
-0.099590935 0.0369566 -0.07402189 0.07416859 0.042571895 0.11096165 -0.07779707 0.0077241138
-0.15126055 -0.035503134 -0.038749795 -0.090387575 -0.09061666 0.08466449 0.005489247 0.06427964
-0.08135376 -0.17840496 -0.082141675 0.15797198 -0.009774892 -0.10556157 -0.022369595 -0.12219112
0.034581598 -0.15988396 -0.07608376 -0.027359132 -0.20046434 0.103940494 -0.06688078 -0.14088428
-0.09837382 -0.14092919 0.066831976 0.15001208 0.034667164 0.073352896 -0.044527337 -0.111572266
-0.16502175 0.12997971 0.123138435 0.074651584 -0.16777147 0.17038622 0.1313028 -0.13975036
00000000: 4ae8 40be 8a54 ba3d cb7b 69bd 1068 7b3d
00000010: d39b 5c3d fe86 91bc 958e 0cbe fa26 a73c
00000020: 1170 013e c810 aebd d979 6b3d 4e4e 9b3c
00000030: 8cdc 0cbe 585e 4c3d b488 b73d c82b 1dbd
00000040: 6d3b 243e 6089 4abd 396a 4c3b 22cc 223d
00000050: 48fe 99bd 2c97 00be 027c 183e 479f 223e
00000060: 00f8 c7bd bb33 cb3c 75d3 da3c 5a25 1c3e
00000070: 96b5 273e 49ff b13d 6118 a93d 7fff bdbd
00000080: 477c 7bbb 42a9 2f3e c993 1abd d260 f6bd
00000090: 9f2a ffbd 37f3 56bc 5efd c9bc c7dc 4bbd
000000a0: aa6d 08be 974b 713d f401 043e a094 1abe
000000b0: 0dc1 cf3d 1c54 b23a 92e9 0e3d d339 b7bd
000000c0: a8a2 edbc de57 3abc 4298 12bc b298 c23d
000000d0: aa5b 083e 1823 41bd 35fe f03d de8c e33d
000000e0: 592d 09be 0d77 1a3d b140 543d a8c1 913c
000000f0: d3af 1ebe a87f 74bd 8eaa 85bd fa4a 213a
00000100: 934d 1cbd 539e a1bd 592e 9e3d 44c3 10be
00000110: ec7d 9cbd 4175 ab3c 790c 77bd 78e4 0fbe
00000120: 2a06 2abe 43c3 393e ee11 0cbe ba6c 8bbd
00000130: 6bfc eb3d 1e70 c7bd d844 073b 190b cfbd
00000140: 67a1 213d 1d4d 12be 366f 2dbd 7177 743d
00000150: 9fb7 31be 8f32 d6bc 1c1c abbc 5db3 a4bc
00000160: 47b0 183e edec 0dbd 348b 50bd 67a2 233e
00000170: 2f19 003e ec03 213e 42e8 1f3e 3c68 59bd
00000180: a580 653c b784 e43d c9bb c8bc d732 e63d
00000190: b682 7abd d1ab 7fbd ed00 0dbd b981 193d
000001a0: d963 25be e22e c83d b79b 03be ea03 45bd
000001b0: d17e 853d 4a7c 26be 853f 593d 0adf 03be
000001c0: d8ba 1c3d e8fb dbbd 4673 57bd aae2 333e
000001d0: a253 2fbe 7f90 34bd 3138 803d 2329 fabd
000001e0: a092 9b3d 2a06 0abe afa0 9abd b12f cabd
000001f0: 3368 253c 03d4 043d d8a9 51bd bfcd 833d
00000200: 394d 763a 8a42 0abe f382 f43d c205 5abb
00000210: 195f a33c 2e52 fa3d b023 183d 243d 193e
00000220: 3ef3 1fbe 2d03 e53d e2f9 463e ce25 a3bd
00000230: 28a7 013e dcfa ea3d cca9 383e aef8 583e
00000240: a27f b2bd 8831 1e3e caff 1d3e d9b4 b83d
00000250: 46dc 0c3e 2ae4 bdbc 9681 7a3d f8bc 91bd
00000260: aad5 80bd 7c4b 613e 2324 7ebc 635e 503e
00000270: 13f0 d33d 8b9f 1f3e 10d6 9abd adb8 f03c
00000280: 1552 38bd 3243 7c3d e61d 083c e168 613e
00000290: c10f 8abc 6d6d f03d 074f 463e abfd 623e
000002a0: 0146 c13c 3451 d6bc dcd9 113e a68d 84bd
000002b0: 8d42 0f3e 485c 74bd 348d 7c3e 5f54 533d
000002c0: 88d3 333d 1c38 1a3e aa74 44bd 889a 9f3c
000002d0: 65a6 d03d b818 17be 5a40 cbbd 5847 fbbd
000002e0: f366 823d ad21 e93b a43f 3abe 0e38 593d
000002f0: 4790 c5bd 3130 ff3c 8ad7 c5bc 4958 61bd
00000300: 6b9a b2bc 35c3 983c ad5b 2abc f1fd 78bd
00000310: 0f24 cdbd c937 893d a1f0 383e 2c01 ddbd
00000320: c1ee 4a3c 7209 0c3e ba59 31bd 0d73 1a3e
00000330: 4c6d 11bd 7167 bf3c ba68 fd3d a550 c73c
00000340: 55f6 cbbd ce5f 173d ca98 97bd b4e5 973d
00000350: de5f 2e3d dd3f e33d 1254 9fbd 901a fd3b
00000360: 0ce4 1abe bc6b 11bd 1bb8 1ebd 1f1d b9bd
00000370: 3a95 b9bd 9364 ad3d 24df b33b 0ba5 833d
00000380: cd9c a6bd caaf 36be e539 a8bd 68c3 213e
00000390: de26 20bc aa30 d8bd 7140 b7bc 573f fabd
000003a0: 6fa5 0d3d 9fb8 23be cdd1 9bbd 4220 e0bc
000003b0: 8646 4dbe c1de d43d caf8 88bd f843 10be
000003c0: 3778 c9bd be4f 10be 34df 883d c49c 193e
000003d0: 28ff 0d3d 0b3a 963d 4c62 36bd 0080 e4bd
000003e0: 76fb 28be 6719 053e 0130 fc3d eee2 983d
000003f0: 49cc 2bbe ba79 2e3e 3e74 063e b81a 0fbe

fc1.bias f4 [50]
-0.4832559 -0.07550081 0.037889123 -0.17207356 -0.82670057 -0.2552534 -0.17374426 0.81507826
-0.10952672 -0.13892712 -0.7536666 -0.10054242 0.57790786 -0.3127203 -0.17710467 -0.13313627
1.0755047 -0.10226828 -0.2848908 0.91924345 -0.09306246 -0.7296258 -0.11843034 -0.042608265
-0.046651505 -0.078054726 0.14161193 -0.070050955 -0.13042842 -0.030580962 -0.040073477 0.02295989
-0.013886193 -0.77192914 -0.8408282 0.033527184 0.018905396 -0.38131922 -0.15321657 -0.12815017
-0.58105165 -0.11141528 -0.01941042 0.045939453 0.046873424 0.061655566 0.9951593 0.030102054
-0.26702988 -0.050227243
00000000: 516d f7be 2ba0 9abd a031 1b3d 0d34 30be
00000010: a6a2 53bf 93b0 82be 04ea 31be f8a8 503f
00000020: 8c4f e0bd e942 0ebe 4bf0 40bf 2fe9 cdbd
00000030: c5f1 133f e01c a0be ed5a 35be e054 08be
00000040: 23aa 893f 0872 d1bd 35dd 91be 8a53 6b3f
00000050: 8897 bebd c2c8 3abf 9b8b f2bd 0186 2ebd
00000060: a615 3fbd 28db 9fbd b802 113e e076 8fbd
00000070: 078f 05be ed84 fabc 1624 24bd 6116 bc3c
00000080: ea82 63bc 269d 45bf 8440 57bf cd53 093d
00000090: 7ddf 9a3c 463c c3be cee4 1cbe cc39 03be
000000a0: cdbf 14bf b22d e4bd 9a02 9fbc 022b 3c3d
000000b0: 59fe 3f3d 8c8a 7c3d c3c2 7e3f 9598 f63c
000000c0: 24b8 88be 15bb 4dbd

fc2.weight f4 [30, 50]
0.052287266 -0.061359055 0.11667337 0.11692703 0.07407654 0.06405821 0.012413208 -1.2595476
0.037300844 0.012510096 0.10342682 0.034285653 0.46955615 0.13109043 -0.0333288 0.17220302
1.2996514 -0.016487157 -0.024071064 -1.7011652 -0.05938343 -0.07165247 0.051886335 0.03450927
0.06945268 0.1555206 -0.060792685 -0.1147405 0.107684664 -0.08299615 -0.06743418 0.09910247
-0.019779298 0.13452128 0.24099903 -0.0825359 -0.10478127 -0.029792065 0.038128786 0.028170247
-0.03738007 0.04377365 0.003177215 0.13411145 0.086236276 0.09127106 0.8063841 -0.06232393
0.053906698 0.0623681 -0.038873788 0.14752315 -0.118503645 -0.1302231 0.2894172 0.20011842
-0.06813718 -1.2532276 -0.07235312 -0.07937707 -0.08061344 -0.091856584 0.45549676 0.021273527
0.0066697085 0.056699872 1.2963303 -0.061256923 0.21436353 -1.7054456 -0.02623887 -0.061787084
-0.043034624 0.085994005 -0.06862765 0.0011160572 -0.088102594 0.11594528 -0.008227251 -0.07135553
0.05449529 0.01973378 -0.11266746 0.17695506 0.15504761 0.044802524 -0.072632596 0.066362694
0.08888271 -0.095617495 -0.014299817 -0.029141294 -0.0340337 0.015371129 0.044006642 0.010016127
0.79536635 0.04367002 -0.023194004 0.12289919 0.02515791 -0.095960304 -0.13899352 0.057483785
0.06941732 -0.016092546 -0.030971562 -1.2618165 0.058663428 -0.13006142 -0.056922417 -0.1075987
0.48262244 0.05852052 -0.0034648476 0.030461345 1.282859 0.099602096 0.17863889 -1.729178
-0.02964189 0.099339575 -0.07575854 -0.032653976 -0.045295846 0.14535609 -0.020776795 -0.019973814
-0.11578969 -0.027612442 0.084426194 0.05692342 0.12985907 0.20811808 0.22478583 0.028520705
0.1147215 -0.06694118 -0.032977384 0.003338806 -0.11187343 0.0077164476 0.024493862 0.11065094
-0.07726665 -0.12264908 0.77985656 -0.039075915 0.1015653 -0.11305898 -0.035122987 -0.032016218
-0.08566931 0.1006999 0.22888295 0.15729688 -0.094599806 -1.2672689 0.09423257 -0.060537595
-0.0892716 -0.04638507 0.48276228 -0.037046295 -0.05641742 0.12790024 1.2794706 0.093890995
0.10728256 -1.7446086 -0.08721391 0.07860813 0.040378354 0.082142934 0.06832792 0.08149061
0.048296563 0.028545724 0.08515766 0.0359982 -0.12403051 0.039885014 0.07895624 0.1347781
0.2181656 0.09175665 0.04791271 -0.06632989 0.0028377823 -0.103571266 0.006460825 0.10720589
-0.06499086 -0.057819203 -0.084208444 0.14363426 0.75723815 -0.082532905 0.004012803 0.03314892
-0.02178861 0.029694417 -0.015033866 -0.09586697 0.20301259 0.06821632 0.083265826 -1.2374804
-0.07988694 0.0030214908 -0.09900085 -0.06274258 0.44122785 0.019630736 0.0817886 0.12817809
1.2970272 0.13390176 0.016464837 -1.7049489 -0.04543258 -0.06610503 0.08897442 0.14983846
-0.09384054 -0.069112554 0.07393448 0.07601702 -0.082992844 -0.014985161 -0.020374779 0.1266895
-0.06284934 0.17546023 0.19964813 0.03804893 0.05156296 0.07674781 -0.091316596 -0.13481341
-0.061306413 -0.044667147 0.034160696 0.06377621 -0.057680868 -0.03036523 0.834083 -0.11546099
0.20262647 0.033202328 0.051324576 0.00789057 0.12472287 0.12512033 0.0746366 -0.038712557
00000000: 2c2b 563d a253 7bbd 73f2 ee3d 7077 ef3d
00000010: 71b5 973d f330 833d c560 4b3c db38 a1bf
00000020: c5c8 183d 25f7 4c3c 71d1 d33d 1d6f 0c3d
00000030: aa69 f03e 923c 063e c883 08bd fd55 303e
00000040: fa5a a63f 1310 87bc ae30 c5bc c8bf d9bf
00000050: 0a3c 73bd 88be 92bd c486 543d 9859 0d3d
00000060: 353d 8e3d cb40 1f3e c001 79bd 11fd eabd
00000070: c789 dc3d e3f9 a9bd ee1a 8abd 3cf6 ca3d
00000080: 3208 a2bc f2bf 093e 73c8 763e 9508 a9bd
00000090: 9097 d6bd 7d0e f4bc ee2c 1c3d 4ac5 e63c
000000a0: d81b 19bd 004c 333d d338 503b 8354 093e
000000b0: a59c b03d 52ec ba3d 306f 4e3f 6147 7fbd
000000c0: 45cd 5c3d b175 7f3d 1f3a 1fbd 4f10 173e
000000d0: 0ab2 f2bd 3459 05be 7e2e 943e d8eb 4c3e
000000e0: 818b 8bbd c369 a0bf df2d 94bd 7290 a2bd
000000f0: a918 a5bd 4e1f bcbd df36 e93e d245 ae3c
00000100: 928d da3b 203e 683d 27ee a53f 8ae8 7abd
00000110: 1d82 5b3e 0b4c dabf e6f2 d6bc 7414 7dbd
00000120: 1345 30bd a01d b03d a78c 8cbd aa48 923a
00000130: 226f b4bd b874 ed3d 97cb 06bc d922 92bd
00000140: 7436 5f3d bca8 a13c 33be e6bd b533 353e
00000150: cdc4 1e3e da82 373d 66c0 94bd 2ae9 873d
00000160: 2308 b63d 1bd3 c3bd c849 6abc b9b9 eebc
00000170: ec66 0bbd 30d7 7b3c 4f40 343d ae1a 243c
00000180: 219d 4b3f 56df 323d 5a01 bebc 92b2 fb3d
00000190: f617 ce3c d686 c4bd 5154 0ebe 1e74 6b3d
000001a0: ab2a 8e3d 84d4 83bc 13b8 fdbc 3483 a1bf
000001b0: 1049 703d d22e 05be 7b27 69bd b55c dcbd
000001c0: 4a1a f73e 36b3 6f3d 7f12 63bb 128a f93c
000001d0: b934 a43f 2ffc cb3d 1ded 363e b455 ddbf
000001e0: 8dd3 f2bc 8c72 cb3d 4b27 9bbd 2dc0 05bd
000001f0: 2388 39bd 3ad8 143e 1934 aabc 20a0 a3bc
00000200: 2523 edbd 7d33 e2bc a4e7 ac3d 8828 693d
00000210: c7f9 043e e81c 553e 422e 663e 41a4 e93c
00000220: 1bf3 ea3d 7518 89bd 4b13 07bd dfcf 5a3b
00000230: e61d e5bd 41da fc3b 5aa7 c83c f69c e23d
00000240: fa3d 9ebd 712f fbbd aea4 473f 110e 20bd
00000250: 7801 d03d 778b e7bd 1fdd 0fbd 7023 03bd
00000260: 6473 afbd c03b ce3d 4b60 6a3e 6f12 213e
00000270: 8bbd c1bd de35 a2bf 01fd c03d 45f6 77bd
00000280: 07d4 b6bd 45fe 3dbd 9e2c f73e dbbd 17bd
00000290: f415 67bd 48f8 023e b1c5 a33f ec49 c03d
000002a0: f5b6 db3d 564f dfbf 359d b2bd 4dfd a03d
000002b0: c663 253d 8e3a a83d 82ef 8b3d 8de4 a63d
000002c0: 9ed2 453d b9d8 e93c 2467 ae3d d972 133d
000002d0: b503 febd 785e 233d cfb3 a13d 4503 0a3e
000002e0: ce66 5f3e e9ea bb3d 1e40 443d f7d7 87bd
000002f0: 16fa 393b 2c1d d4bd 54b5 d33b c38e db3d
00000300: ee19 85bd d4d3 6cbd 7a75 acbd dc14 133e
00000310: 5cda 413f 0307 a9bd d57d 833b 29c7 073d
00000320: 077e b2bc b541 f33c 9b50 76bc e755 c4bd
00000330: 88e2 4f3e ffb4 8b3d 4687 aa3d c265 9ebf
00000340: c49b a3bd 3404 463b f5c0 cabd 2f7f 80bd
00000350: 9ee8 e13e a3d0 a03c c880 a73d 1e41 033e
00000360: fd04 a63f 8b1d 093e 44e1 863c c43b dabf
00000370: 8317 3abd 1362 87bd 3938 b63d 416f 193e
00000380: 782f c0bd e28a 8dbd f66a 973d d0ae 9b3d
00000390: 27f8 a9bd 5284 75bc 02e9 a6bc e4ba 013e
000003a0: 28b7 80bd d9ab 333e 8f70 4c3e 32d9 1b3d
000003b0: af33 533d f52d 9d3d 3204 bbbd 870c 0abe
000003c0: 6f1c 7bbd e6f4 36bd 16ec 0b3d 1a9d 823d
000003d0: c642 6cbd 81c0 f8bc 7786 553f d076 ecbd
000003e0: 507d 4f3e 2aff 073d b839 523d 7347 013c
000003f0: b46e ff3d 8b1f 003e 13db 983d 0f91 1ebd

fc2.bias f4 [30]
-0.035529748 0.0056907344 0.04282448 0.05262796 -0.06312042 -0.04425988 0.002355026 0.005758264
-0.03863749 0.061425596 -0.058758974 0.002641653 0.0039904364 0.049080055 -0.003495502 0.046235822
0.037322145 -0.03344749 0.08047656 -0.023727505 -0.03030455 0.050402068 0.032320756 -0.035449345
0.06926036 0.048596352 0.05194589 -0.054330014 -0.019876234 -0.0329507
00000000: a487 11bd 5779 ba3b b968 2f3d 6a90 573d
00000010: 4745 81bd d949 35bd c856 1a3b d2af bc3b
00000020: 5842 1ebd 6899 7b3d 40ad 70bd 951f 2d3b
00000030: 35c2 823b 2b08 493d cb14 65bb c661 3d3d
00000040: 1bdf 183d 3c00 09bd e5d0 a43d 2f60 c2bc
00000050: 3f41 f8bc 6672 4e3d c562 043d 5533 11bd
00000060: 60d8 8d3d f80c 473d 37c5 543d 2689 5ebd
00000070: 7cd3 a2bc 50f7 06bd
