bat_model.pth (torch, 2526 bytes, 4 tensors)

fc1.weight f4 [3, 5]
0	0xbe01bd5b	-0.1266989
1	0xbde2dda5	-0.110774316
2	0x3d0d9fe1	0.0345763
3	0x3ea3f632	0.3202377
4	0x3e057a2b	0.13034885
5	0xbe08ad63	-0.13347392
6	0xbd934ead	-0.071927406
7	0x3ef89b61	0.48556045
8	0xbe3bcc3f	-0.18339632
9	0x3f2f2fd2	0.68432343
10	0xbe1f03e8	-0.15528834
11	0xbeb0229d	-0.34401408
12	0xbe892b6d	-0.26790944
13	0xbe683e73	-0.22680072
14	0x3e6ba7f8	0.23013294

fc1.bias f4 [3]
0	0xbf9253d5	-1.1431834
1	0xbf1f4cdd	-0.6222666
2	0xbe5fae4e	-0.21843836

fc2.weight f4 [5, 3]
0	0xbd44d240	-0.048052073
1	0x3ce4df95	0.027938643
2	0xbe45a3f2	-0.19300821
3	0x3d7dfd68	0.062009245
4	0xbd2a9418	-0.04164514
5	0x3e658e71	0.22417618
6	0x40598110	3.3985023
7	0x3fb9bd6a	1.451093
8	0x3ebf9a0c	0.37422216
9	0x4068e652	3.6390576
10	0x3f8aa2b3	1.0830902
11	0x3e3934dc	0.1808657
12	0x3d36d7af	0.044639286
13	0xbcdf35b2	-0.027247284
14	0x3e30aea9	0.17254128

fc2.bias f4 [5]
0	0xbe44ed55	-0.1923116
1	0x3e609f5a	0.21935788
2	0x3df70c2e	0.1206287
3	0x3d8149b6	0.06312887
4	0x3e33199f	0.17490242
