bat_seq_model2.pth (torch, 14472 bytes, 4 tensors)

fc1.weight f4 [50, 30]
0.11567965 0.009703023 -0.18225503 0.02708736 0.108507045 0.13386866 -0.1473236 -0.07386312
0.14498326 -0.022596292 0.034348033 0.040107105 0.08046672 -0.110296436 0.08512366 0.14507177
-0.00029958886 -0.04145091 -0.05594109 -0.13105537 -0.0925118 -0.14813872 0.12712505 -0.050625928
0.072586805 -0.14797668 -0.009871655 -0.1302637 -0.06775727 -0.124361984 -0.0489489 0.09391372
0.092421666 -0.14983629 -0.04279958 0.032967344 0.0127476845 -0.012044708 -0.049482066 0.042774193
-0.067321934 -0.13550694 0.009287533 -0.06070737 0.14594123 -0.088833764 -0.10155154 0.09680044
0.08091257 -0.07734889 -0.097769484 -0.07416595 -0.03446914 -0.051064927 -0.05285316 -0.13282306
-0.13749899 0.05122075 0.008708586 -0.09435601 -0.009556083 -0.07626114 0.1318173 -0.003059959
0.12256176 0.016921211 0.036489367 -0.042513683 0.15064731 0.15037715 0.19535442 -0.1463876
0.016015347 0.056633323 -0.13402513 0.026243601 0.05824356 0.05899577 0.14335853 -0.09220109
0.077552 0.18383491 0.06523537 -0.07040792 -0.040857896 0.0067487787 -0.046106987 -0.1110778
0.15017429 0.16543615 0.10945648 0.030879723 -0.040212117 0.035936408 -0.10108503 -0.16782507
-0.08641257 0.11348324 -0.012862559 -0.08049948 -0.040583268 -0.019216912 -0.07394184 -0.041872796
0.1466519 -0.17447214 -0.0052246647 0.07007894 -0.05237223 -0.02192207 0.12141644 -0.15919718
-0.043215625 0.020535886 -0.17287797 -0.050939728 0.13097334 -0.060880683 -0.024413152 -0.14402276
-0.013070733 -0.1875651 -0.071914114 -0.0996268 0.12800017 0.09200934 0.015215462 0.13371158
-0.08493798 0.08200046 -0.10538245 -0.14724977 -0.014618776 0.044832546 -0.09170497 0.017296053
0.084144965 -0.14337535 0.13660102 -0.0014084026 0.04574359 0.04441419 -0.08352237 -0.06710637
0.10452004 -0.060423188 -0.1486397 0.021650871 0.06079699 0.06543588 0.089465894 0.20154706
-0.021627948 -0.095677555 0.10695694 0.10868161 -0.09976686 0.04830984 0.19574861 0.043986335
0.11674382 0.0683699 0.1863987 -0.062116064 0.025698999 0.07811217 0.20940469 0.17824338
-0.11644581 0.08099452 0.01166998 0.1487388 0.16238217 -0.1417031 -0.05823554 0.0044430615
-0.04127016 0.17129576 0.20006138 0.12508713 -0.09623443 0.059662282 0.027281392 -0.058905788
0.041535817 -0.13707545 -0.10005628 -0.023139993 0.15020241 -0.04741037 0.028153846 0.16362613
-0.16434996 0.016288625 -0.009883734 -0.07000877 0.16366345 -0.18037298 -0.12996106 -0.025724487
0.035533372 0.096780024 -0.018394321 -0.05470654 -0.08217215 0.048305806 -0.1708575 -0.09941763
-0.07170667 -0.10265179 -0.048433565 0.14911515 -0.05970446 -0.14620128 0.040800262 -0.1272812
0.1252565 -0.14479218 -0.13493912 0.03489393 0.16299134 -0.056370527 -0.10720907 -0.10345462
-0.08129425 -0.13380714 0.10929831 -0.100926585 0.110288925 -0.10327735 0.08132805 0.13984619
-0.12308867 0.06297419 -0.14333668 0.009689333 -0.124269314 -0.02252299 0.055082303 0.11425271
-0.004617018 -0.07684142 -0.15671879 -0.13863878 0.12363957 0.14905474 0.056898583 -0.105569676
0.14156185 0.17086703 -0.114383295 0.1509038 -0.034662507 0.1717433 -0.13223632 -0.012271149
00000000: 74e9 ec3d 6ef9 1e3c 10a1 3abe 50e6 dd3c
00000010: f138 de3d de14 093e ffdb 16be 8c45 97bd
00000020: 7e76 143e dc1b b9bc 86b0 0c3d 5947 243d
00000030: bccb a43d 19e3 e1bd 5055 ae3d b28d 143e
00000040: 2312 9db9 6ec8 29bd 7c22 65bd 6133 06be
00000050: d476 bdbd adb1 17be 122d 023e 225d 4fbd
00000060: 64a8 943d 3387 17be b9bc 21bc d963 05be
00000070: 53c4 8abd 7fb1 febd a47e 48bd d655 c03d
00000080: 9247 bd3d af6e 19be 9d4e 2fbd c408 073d
00000090: aadb 503c 2b57 45bc b5ad 4abd fe33 2f3d
000000a0: 15e0 89bd 55c2 0abe bd2a 183c 4ba8 78bd
000000b0: 9e71 153e 7aee b5bd 41fa cfbd 4f3f c63d
000000c0: 7db5 a53d 1869 9ebd 5e3b c8bd 51e4 97bd
000000d0: 832f 0dbd 7529 51bd 8e7c 58bd c502 08be
000000e0: 89cc 0cbe d9cc 513d 75ae 0e3c b93d c1bd
000000f0: 1e91 1cbc cd2e 9cbd 1dfb 063e 9889 48bb
00000100: a901 fb3d 5a9e 8a3c e075 153d d422 2ebd
00000110: 4a43 1a3e 78fc 193e fd0a 483e a2e6 15be
00000120: 9e32 833c 58f8 673d e23d 09be d2fc d63c
00000130: cd90 6e3d 8ca5 713d 94cc 123e edd3 bcbd
00000140: 95d3 9e3d 383f 3c3e 1f9a 853d 0732 90bd
00000150: 9c5a 27bd dc24 dd3b aeda 3cbd c27c e3bd
00000160: 4ac7 193e 1868 293e b82a e03d 79f7 fc3c
00000170: 76b5 24bd 0e32 133d ab05 cfbd 56da 2bbe
00000180: 13f9 b0bd e769 e83d 7cbd 52bc e9dc a4bd
00000190: a43a 26bd c96c 9dbc d26e 97bd cf82 2bbd
000001a0: ea2b 163e d3a8 32be aa33 abbb 8c85 8f3d
000001b0: 4384 56bd ea95 b3bc 2fa9 f83d 9604 23be
000001c0: de02 31bd e03a a83c ec06 31be 2da6 50bd
000001d0: e01d 063e 065e 79bd 17fe c7bc b47a 13be
000001e0: a126 56bc 1111 40be b547 93bd 2309 ccbd
000001f0: 7a12 033e 656f bc3d 464a 793c b0eb 083e
00000200: f7f3 adbd dbef a73d c1d2 d7bd a5c8 16be
00000210: 9783 6fbc 55a2 373d d1cf bbbd 74b0 8d3c
00000220: 3254 ac3d fdd0 12be 23e1 0b3e 269a b8ba
00000230: a15d 3b3d a7eb 353d c70d abbd 116f 89bd
00000240: 9a0e d63d 4e7e 77bd 0135 18be 2b5d b13c
00000250: 4406 793d 3f03 863d e539 b73d 5a62 4e3e
00000260: 182d b1bc 98f2 c3bd 3d0c db3d 7794 de3d
00000270: 9152 ccbd 8ae0 453d 5372 483e 042b 343d
00000280: 6217 ef3d 8505 8c3d 4ddf 3e3e 6a6d 7ebd
00000290: b586 d23c 46f9 9f3d 2f6e 563e 6f85 363e
000002a0: 247b eebd 74e0 a53d 7233 3f3c fc4e 183e
000002b0: 8347 263e 9e1a 11be 6488 6ebd 1a97 913b
000002c0: e60a 29bd 2868 2f3e e4dc 4c3e d716 003e
000002d0: 8f16 c5bd 7060 743d 3a7d df3c 3247 71bd
000002e0: 7621 2a3d 825d 0cbe 4fea ccbd 1590 bdbc
000002f0: a9ce 193e 6031 42bd e5a2 e63c 9c8d 273e
00000300: 5b4b 28be b96f 853c 63ef 21bc c260 8fbd
00000310: 6497 273e b2b3 38be 8314 05be 29bc d2bc
00000320: 718b 113d 9b34 c63d b0af 96bc f713 60bd
00000330: df49 a8bd 4fdc 453d 45f5 2ebe 789b cbbd
00000340: f2da 92bd 1a3b d2bd 4662 46bd a4b1 183e
00000350: aa8c 74bd cab5 15be 2d1e 273d 0156 02be
00000360: 3d43 003e 6744 14be 7b2d 0abe f0ec 0e3d
00000370: 34e7 263e c8e4 66bd 6e90 dbbd 04e0 d3bd
00000380: 9a7d a6bd bd04 09be cbd7 df3d 99b2 cebd
00000390: 29df e13d 1383 d3bd 528f a63d d733 0f3e
000003a0: ea15 fcbd 9df8 803d dac6 12be 02c0 1e3c
000003b0: e980 febd 2282 b8bc fb9d 613d 53fd e93d
000003c0: 5b4a 97bb 095f 9dbd e47a 20be 53f7 0dbe
000003d0: be36 fd3d cea1 183e 7d0e 693d ea34 d8bd
000003e0: 97f5 103e c4f7 2e3e ca41 eabd 8786 1a3e
000003f0: 46fa 0dbd 7add 2f3e f568 07be ee0c 49bc

fc1.bias f4 [50]
-0.03204752 0.6538769 -0.7021792 -0.067791946 0.012647276 -0.16181275 -0.057381947 -0.034966256
-0.14481658 -0.006450021 -0.76661247 0.6367767 0.6039703 -0.13271846 -0.110839084 -0.05070476
0.14763808 -0.1774645 -0.023907147 -0.12725103 -0.652506 -0.052999537 -0.11420367 -0.08500865
-0.13787895 -0.05268718 0.5053171 0.03466301 -0.15087354 0.6744678 -0.6691687 -0.16027401
-0.100156285 0.05925244 0.08627489 -0.0050596893 0.052198377 -0.8421501 1.2078338 -0.06158742
-0.0019970923 -0.08063267 0.09886711 -0.056859728 0.11530759 0.08440872 0.013980166 -0.081327505
-0.19575799 -0.14664358
00000000: 4344 03bd 7a64 273f 04c2 33bf 81d6 8abd
00000010: 8536 4f3c 3eb2 25be 5509 6bbd c738 0fbd
00000020: cc4a 14be b35a d3bb b740 44bf cc03 233f
00000030: cc9d 1a3f 59e7 07be 9aff e2bd cbaf 4fbd
00000040: 702e 173e 41b9 35be ecd8 c3bc 184e 02be
00000050: a20a 27bf 0b16 59bd 9de3 e9bd 0419 aebd
00000060: 2430 0dbe 83ce 57bd 765c 013f cdfa 0d3d
00000070: 987e 1abe eca9 2c3f a44e 2bbf df1e 24be
00000080: bd1e cdbd b0b2 723d e4b0 b03d c0cb a5bb
00000090: f7cd 553d 2697 57bf 4c9a 9a3f 1743 7cbd
000000a0: a6e1 02bb be22 a5bd d77a ca3d bfe5 68bd
000000b0: 6326 ec3d 7bde ac3d 110d 653c 098f a6bd
000000c0: c874 48be bc29 16be

fc2.weight f4 [30, 50]
-0.08537925 -0.6877663 0.024815582 -0.080111116 -0.0473504 0.054299954 -0.06082753 0.07854794
-0.05882165 0.057499293 0.038053904 0.64661074 -0.6886437 0.042554546 0.111238025 -0.12944025
0.04311808 -0.0150312865 -0.074573986 0.06754279 0.11373629 -0.13638785 -0.0071268976 -0.13825256
0.10612166 0.08118345 -0.529576 -0.021009801 -0.021198753 -0.805056 0.10382451 -0.121341355
-0.10434081 0.10739657 0.025157893 0.052243188 -0.09766274 0.16602509 1.007379 0.062527716
-0.12608597 0.15357028 0.06754594 0.024703095 0.14031272 -0.08332491 -0.078365296 0.129409
0.103549786 0.035594817 0.116764255 -0.72476745 0.16354975 -0.1404644 -0.06776937 -0.063480385
0.11866112 -0.013819531 -0.03434169 0.10279902 0.17796154 0.68514365 -0.7496399 -0.07547014
-0.047676604 -0.019945104 0.070862986 0.08657742 0.15883322 0.10588256 0.05712056 0.049454935
-0.12592688 -0.110376686 0.1389124 0.08868532 -0.5570115 0.1131153 0.12825988 -0.7696304
0.06779888 -0.11789995 0.06906769 0.119802184 0.12875405 0.018882396 0.06437631 0.13498233
0.9144626 0.08284505 -0.0036633536 0.10917925 0.036538336 -0.07847654 0.061284386 0.04011625
-0.0013795831 0.03796679 0.09374523 0.13417533 -0.00059904164 -0.67710567 0.096707106 0.09498066
0.11748683 -0.06017222 -0.022907084 -0.09672611 0.12495265 -0.07449098 0.0801638 0.66370535
-0.66315466 0.033061203 -0.090613335 0.11780301 -0.111467086 -0.060786698 0.012417156 -0.034421418
0.18450104 0.08785983 -0.050450403 0.13268217 -0.014854826 0.0015956702 -0.5598728 -0.116373084
0.06788694 -0.85115534 -0.010696923 0.010280072 -0.008433572 0.07925047 0.10972799 0.121280104
0.06877111 0.15940347 0.9649039 0.1054101 0.12441715 0.09697263 -0.010349176 -0.02668784
-0.072605506 0.08542753 0.041150674 0.12619697 0.16566604 -0.0019114945 -0.060621247 -0.71308887
0.12995271 -0.11045415 0.039770998 -0.027036084 0.016083136 0.03082528 0.082728125 -0.08575024
0.12940602 0.64952034 -0.658335 0.057121962 0.12191495 -0.08882134 0.06890476 -0.025028689
-0.0016960646 0.119271085 0.107076705 -0.04003852 -0.07362234 -0.06599462 -0.04339234 -0.09028587
-0.5127214 0.094411 0.06303353 -0.83181274 -0.033031173 -0.100531414 -0.06988957 0.011338145
-0.13706315 0.12228812 0.0098958025 0.14631702 0.98013675 -0.10920094 0.035095125 0.14144297
-0.121860676 -0.06850807 0.1001235 0.067116916 -0.051098898 0.13570428 -0.004066948 0.060099404
0.02269338 -0.7011458 0.08407629 0.043903463 -0.07789061 0.08568477 -0.06192119 -0.10460879
-0.0074631902 0.096006915 0.021483863 0.636142 -0.72666997 0.03828591 -0.10197194 -0.1293302
-0.020095484 -0.13868354 0.12249294 -0.13060372 0.11851494 -0.09103522 0.061801426 -0.075420134
0.07709657 0.057301916 -0.5018105 -0.07255966 -0.12461358 -0.73262835 -0.06163197 0.05757366
-0.018832285 0.08066877 -0.11117566 0.04445948 0.09099232 0.232689 1.0253938 0.021805903
-0.016768867 0.09548281 -0.09871952 -0.0908095 -0.036847156 0.029217083 -0.10171327 -0.07524561
0.15128079 0.0862067 0.06838948 -0.74081236 0.043227304 0.039531637 0.019557942 0.185596
00000000: 51db aebd 7411 30bf 0c4a cb3c 4c11 a4bd
00000010: 7ef2 41bd a169 5e3d 4a26 79bd bedd a03d
00000020: f8ee 70bd 6184 6b3d 69de 1b3d 4888 253f
00000030: f44a 30bf ad4d 2e3d c3d0 e33d fc8b 04be
00000040: 959c 303d c945 76bc 3fba 98bd e053 8a3d
00000050: 92ee e83d 42a9 0bbe c088 e9bb 1492 0dbe
00000060: 5056 d93d 8243 a63d 4b92 07bf bf1c acbc
00000070: 02a9 adbc 2618 4ebf f2a1 d43d d181 f8bd
00000080: a2b0 d5bd bcf2 db3d ed17 ce3c f4fc 553d
00000090: 6703 c8bd 7b02 2a3e ccf1 803f 880e 803d
000000a0: ae1c 01be 8741 1d3e 8755 8a3d 255e ca3c
000000b0: 23ae 0f3e 40a6 aabd fc7d a0bd cb83 043e
000000c0: e911 d43d dfcb 113d 1922 ef3d 5c8a 39bf
000000d0: 9679 273e e6d5 0fbe abca 8abd 0102 82bd
000000e0: 9a04 f33d 506b 62bc dfa9 0cbd 4b88 d23d
000000f0: 8d3b 363e 9365 2f3f 67e8 3fbf 1790 9abd
00000100: 8b48 43bd ea63 a3bc 9d20 913d 814f b13d
00000110: 2da5 223e f5d8 d83d 40f7 693d 4291 4a3d
00000120: faf2 00be 2c0d e2bd 0d3f 0e3e a6a0 b53d
00000130: 4e98 0ebf ffa8 e73d 8f56 033e 7f06 45bf
00000140: 24da 8a3d 8775 f1bd 5c73 8d3d d95a f53d
00000150: 1ad8 033e 41af 9a3c bad7 833d cf38 0a3e
00000160: 391a 6a3f aaaa a93d e014 70bb 5f99 df3d
00000170: 39a9 153d 4fb8 a0bd 5605 7b3d f050 243d
00000180: 21d3 b4ba 1183 1b3d 80fd bf3d 4265 093e
00000190: 0109 1dba cc56 2dbf 600e c63d 3885 c23d
000001a0: ef9c f03d 2577 76bd a3a7 bbbc 5718 c6bd
000001b0: 2de7 ff3d ba8e 98bd eb2c a43d 98e8 293f
000001c0: 81c4 29bf 2f6b 073d 7c93 b9bd b442 f13d
000001d0: db48 e4bd 79fb 78bd 5471 4b3c 79fd 0cbd
000001e0: d7ed 3c3e dbef b33d 15a5 4ebd d6dd 073e
000001f0: a861 73bc cf25 d13a d353 0fbf 0355 eebd
00000200: 4f08 8b3d 51e5 59bf 2642 2fbc bf6d 283c
00000210: f72c 0abc 124e a23d 12b9 e03d b461 f83d
00000220: ded7 8c3d aa3a 233e f103 773f 40e1 d73d
00000230: 6bce fe3d 9699 c63d 978f 29bc 75a0 dabc
00000240: 32b2 94bd a1f4 ae3d 9c8d 283d c739 013e
00000250: 5ca4 293e 1d8b faba fc4d 78bd fe8c 36bf
00000260: 5312 053e c935 e2bd eae6 223d c77a ddbc
00000270: c8c0 833c 4c85 fc3c 5d6d a93d d29d afbd
00000280: 0383 043e f746 263f a488 28bf b8f8 693d
00000290: 8cae f93d f6e7 b5bd f01d 8d3d f708 cdbc
000002a0: 7c4e deba 6644 f43d 084b db3d 6eff 23bd
000002b0: 4fc7 96bd 3028 87bd 2bbc 31bd cce7 b8bd
000002c0: b641 03bf 8e5a c13d b917 813d aef1 54bf
000002d0: b24b 07bd 6ae3 cdbd 4322 8fbd a0c3 393c
000002e0: 485a 0cbe 3272 fa3d 0122 223c 21d4 153e
000002f0: 3eea 7a3f bea4 dfbd e8bf 0f3d 6dd6 103e
00000300: 1792 f9bd f64d 8cbd 8d0d cd3d 9874 893d
00000310: 144d 51bd 10f6 0a3e 0844 85bb cb2a 763d
00000320: 78e7 b93c 4b7e 33bf 3130 ac3d 1ed4 333d
00000330: 1d85 9fbd 7f7b af3d 13a1 7dbd 223d d6bd
00000340: c78d f4bb 469f c43d edfe af3c 34da 223f
00000350: 0b07 3abf b0d1 1c3d aad6 d0bd 236f 04be
00000360: 499f a4bc 0f03 0ebe 94dd fa3d fbbc 05be
00000370: f6b7 f23d ac70 babd 7e23 7d3d df75 9abd
00000380: cee4 9d3d 6ab5 6a3d a776 00bf 299a 94bd
00000390: 6835 ffbd 888d 3bbf ce71 7cbd 5cd2 6b3d
000003a0: 2a46 9abc ab35 a53d 10b0 e3bd 251b 363d
000003b0: 2e5a ba3d 0646 6e3e 1b40 833f 4ba2 b23c
000003c0: dd5e 89bc 7e8c c33d 762d cabd 55fa b9bd
000003d0: 0bed 16bd aa58 ef3c 0c4f d0bd 5f1a 9abd
000003e0: 5ae9 1a3e 238d b03d c90f 8c3d e1a5 3dbf
000003f0: 1d0f 313d edeb 213d fa37 a03c e10c 3e3e

fc2.bias f4 [30]
-0.008904708 0.0783352 0.0035609298 -0.022671245 -0.08558893 0.12890364 0.090768725 -0.026577892
-0.03037515 -0.0243974 -0.012588724 0.051872317 -0.0033931935 -0.032665215 -0.030863693 0.019886596
0.011357649 -0.048322 0.05076742 0.0036395548 0.0021353834 -0.046431772 -0.019409398 0.11376925
0.053900357 -0.009405715 -0.043949585 0.09840524 -0.03479896 0.012963976
00000000: 0de5 11bc 356e a03d 7d5e 693b 0cb9 b9bc
00000010: 4049 afbd 51ff 033e f4e4 b93d e1b9 d9bc
00000020: 4ed5 f8bc 0edd c7bc ef40 4ebc 1178 543d
00000030: 5760 5ebb f6cb 05bd dbd5 fcbc 37e9 a23c
00000040: 6f15 3a3c 4aed 45bd 80f1 4f3d 9985 6e3b
00000050: caf1 0b3b 3e2f 3ebd 7500 9fbc daff e83d
00000060: 9fc6 5c3d 6e1a 1abc 7b04 34bd b088 c93d
00000070: 5b89 0ebd db66 543c
