bat_model.pth (torch, 2526 bytes, 4 tensors)

fc1.weight f4 [3, 5]
0	0xbfab6f0e	-1.3393266
1	0xbf823960	-1.017376
2	0x3f336d1c	0.7008836
3	0x3b9229d4	0.0044605527
4	0x3f8f0700	1.1174011
5	0x3f81aef7	1.013152
6	0x3f82f4e1	1.0230981
7	0xbd49ad80	-0.049237728
8	0xbee866ae	-0.45390838
9	0xbfa44b8f	-1.2835559
10	0xbf82bcf9	-1.021392
11	0xbfdc2f06	-1.720185
12	0x3ecd2f0a	0.4007495
13	0x3f35f605	0.7107852
14	0x3fd8c48c	1.6934981

fc1.bias f4 [3]
0	0xbe0d9f95	-0.13830407
1	0xbe41f466	-0.18940887
2	0xbf1453f3	-0.57940596

fc2.weight f4 [5, 3]
0	0xbe4b5cb8	-0.19859588
1	0xbea9edc5	-0.33189216
2	0x37b7ac00	2.1895394e-05
3	0xbe76599f	-0.24057625
4	0xbe9d4b2a	-0.30721408
5	0x3cfcca74	0.030858256
6	0x3f9dce22	1.2328532
7	0xbf55cd88	-0.8351674
8	0x3fc37b59	1.5272018
9	0x3f6b37b5	0.9188188
10	0xbf7c7614	-0.9861767
11	0x3fd46139	1.659217
12	0x3d0a4842	0.033760317
13	0x3eb78b8f	0.35848662
14	0x3ddbaafb	0.10725971

fc2.bias f4 [5]
0	0xbdc3d498	-0.095620334
1	0xbdad38a0	-0.08458066
2	0xbe8e5b21	-0.278039
3	0xbe8cc538	-0.27494216
4	0x3e171218	0.14752996
