final_model.pth (torch, 8496 bytes, 4 tensors)

fc1.weight f4 [50, 20]
0	0x3e7131c1	0.23554136
1	0x3e8dd99c	0.27705085
2	0x3e8f8bf5	0.28036466
3	0xbe0ea495	-0.1392997
4	0xbe118959	-0.1421255
5	0xbe13d15d	-0.14435335
6	0x3da00907	0.07814222
7	0x3e9c2949	0.30500248
8	0x3e52a7d5	0.20571835
9	0xbcb58903	-0.022160059
10	0xbd2cd188	-0.042192012
11	0xbe8d96d9	-0.2765415
12	0xbe052b90	-0.13004899
13	0xbe29311b	-0.16522638
14	0xbe604b4d	-0.21903725
15	0xbe70fc23	-0.23533683
16	0x3e07d70b	0.13265626
17	0xbda09841	-0.0784154
18	0xbc3ad5d4	-0.01140352
19	0xbdb6536a	-0.08902629
20	0x3dc7eecf	0.09762346
21	0x3d93bc3f	0.072136395
22	0x3e30b43c	0.17256254
23	0xbddc5683	-0.10758688
24	0xbde59a69	-0.11211092
25	0x3d424d42	0.04743696
26	0xbe17e073	-0.14831714
27	0x3e541de7	0.20714532
28	0x3e587110	0.2113688
29	0xbdb017b9	-0.08598275
30	0xbc889184	-0.01667095
31	0x3c88822f	0.016663639
32	0xbe326936	-0.17422947
33	0x3dd17102	0.10226633
34	0xbcce321b	-0.025170377
35	0x3df1756b	0.11789974
36	0xbdacbf83	-0.084349655
37	0x3e1cf23e	0.15326783
38	0x3e6fdd21	0.23424198
39	0xbdd2dea3	-0.10296371
40	0xbdaf42ae	-0.0855764
41	0xbe38d020	-0.18048143
42	0xbe116f86	-0.14202699
43	0x3d884e03	0.066555046
44	0xbe45276a	-0.19253317
45	0x3afe9f10	0.0019426066
46	0x3e8ef5fa	0.2792204
47	0x3e418763	0.18899302
48	0x3e77cc64	0.24199063
49	0x3d53756f	0.051625665
50	0xbcf432a8	-0.029809311
51	0xbe1f3c42	-0.1555033
52	0xbd55069d	-0.05200826
53	0x3e41389b	0.1886925
54	0xbe091d90	-0.13390183
55	0x3e14d9bd	0.14536186
56	0x3d132e8a	0.035933055
57	0x3e344536	0.17604527
58	0x3e2073a7	0.15669118
59	0x3dbf8d80	0.09353161
60	0x3df41c22	0.119194284
61	0xbc6b4dcf	-0.014361813
62	0xbcb4e9ad	-0.022084082
63	0x3dcbecae	0.099572524
64	0xbe125322	-0.14289525
65	0x3e288500	0.16456985
66	0xbdc60d8b	-0.09670552
67	0x3e75b534	0.23994905
68	0x3e80fced	0.25192967
69	0x3e8411bf	0.2579479
70	0xbe5e194d	-0.21689339
71	0x3dec823e	0.11548279
72	0xbdd69167	-0.10476952
73	0xbd84435e	-0.06458162
74	0xbd5425e8	-0.051793963
75	0xbe56a095	-0.20959695
76	0xbe27fad1	-0.16404273
77	0xbe105da3	-0.1409822
78	0x3d362629	0.044469986
79	0xbe231c16	-0.15928683
80	0x3c88c04e	0.01669326
81	0x3e68a394	0.2271865
82	0x3e0091a3	0.12555556
83	0x3e299e87	0.1656438
84	0xbe598d39	-0.21245278
85	0x3e25ba87	0.16184436
86	0x3e35a3b7	0.17738234
87	0x3ddd56b9	0.10807557
88	0x3d05c739	0.032660697
89	0x3e0d7959	0.13815822
90	0xbe179ad2	-0.14805153
91	0x3d9cb618	0.07651919
92	0x3ddfaa6d	0.10921178
93	0x3e0c774b	0.13717382
94	0xbe6d75f3	-0.23189525
95	0x3def964a	0.11698587
96	0xbd33dd77	-0.043912377
97	0x3e2156f2	0.15755823
98	0xbd2f2920	-0.04276383
99	0xbe9401e0	-0.2890768
100	0x3c37fc50	0.01122959
101	0xbe5477f4	-0.20748883
102	0xbd22f4f3	-0.039784383
103	0xbdf4d743	-0.119551204
104	0x3d93a922	0.07209994
105	0x3e10d80f	0.1414492
106	0xbe482ce1	-0.1954837
107	0x3e369f01	0.17834093
108	0x3e023e7a	0.12719145
109	0xbe463674	-0.1935671
110	0xbe64eb1d	-0.22355314
111	0xbe25b379	-0.16181745
112	0x3e2e8c71	0.17045762
113	0x3e2c79ad	0.1684329
114	0xbe3cbb05	-0.18430717
115	0xbda5213a	-0.08062978
116	0xbcf0f575	-0.029413918
117	0xbe1d1242	-0.15338996
118	0xbc1d3db2	-0.009597229
119	0x3e300ef6	0.17193207
120	0xbe497f30	-0.19677424
121	0xbe451cfe	-0.19249341
122	0xbe4af16b	-0.19818656
123	0xbc42d56d	-0.011891705
124	0xbe50cf42	-0.20391563
125	0xbcd11d9b	-0.025526812
126	0xbe64d189	-0.22345556
127	0xbe3c3459	-0.18379344
128	0x3e2a2f30	0.16619563
129	0x3dd5adc4	0.10433534
130	0x3e317a55	0.17331822
131	0xbdd18118	-0.10229701
132	0xbe29162d	-0.16512366
133	0xbe83a0c2	-0.25708586
134	0x3e1d3f70	0.1535623
135	0xbe3d3e35	-0.18480761
136	0xbe256949	-0.16153444
137	0x3e186fdc	0.14886421
138	0xbd9104f4	-0.07081023
139	0xbc27d2fa	-0.010243172
140	0x3dff2a4f	0.124592416
141	0x3df8b2fa	0.12143512
142	0x3e1dc193	0.15405874
143	0x3cbefb0e	0.023313072
144	0x3d7df4ab	0.06200091
145	0x3e35958a	0.17732826
146	0xbc5cc54a	-0.013474772
147	0x3d4322e2	0.04764069
148	0x3e174126	0.14770946
149	0xbe3d69f8	-0.18497455
150	0xbe9b608f	-0.30347106
151	0x3e083985	0.13303192
152	0xbd5484d5	-0.05188449
153	0xbd8f669f	-0.07001995
154	0xbd34dc12	-0.044155188
155	0x3dee1608	0.11625296
156	0x3da8e8b3	0.08247509
157	0x3c7b831d	0.015351084
158	0xbe939ad8	-0.28829074
159	0xbe493083	-0.19647412
160	0x3e500126	0.20312938
161	0xbe0bb764	-0.13644177
162	0x3c9d726d	0.019219602
163	0x3e89b50b	0.26895937
164	0x3e2812f6	0.16413483
165	0xbdf65f4e	-0.12029897
166	0x3e33a650	0.17543912
167	0x3d4a1e6f	0.04934543
168	0xbdb07c49	-0.086174555
169	0x3e3be53c	0.18349165
170	0xbe17664f	-0.14785121
171	0xbd1f9c92	-0.038967676
172	0xbe80a233	-0.25123748
173	0xbc44ba54	-0.012007315
174	0x3e0a1337	0.13483892
175	0x3e1c9d25	0.15294321
176	0xbd0ddfb4	-0.034637168
177	0x3d3ceba9	0.04612318
178	0x3cfd5cc2	0.03092802
179	0x3d9722a0	0.07379651
180	0xbe22cbac	-0.15898007
181	0xbe36ddd5	-0.1785806
182	0xbd3629b4	-0.044473365
183	0xbe2df569	-0.16988148
184	0xbd32682a	-0.04355637
185	0x3e57248b	0.21010034
186	0x3e66434e	0.22486612
187	0x3e5adefd	0.21374126
188	0x3e1ac30a	0.15113464
189	0x3cef4423	0.029207295
190	0xbd2544ae	-0.0403487
191	0x3e8de5c8	0.27714372
192	0x39bf6938	0.00036508753
193	0xbe60d7f0	-0.21957374
194	0x3da980c8	0.08276516
195	0xbe15f59b	-0.14644472
196	0x3de8b09d	0.11361811
197	0xbe53b691	-0.20675112
198	0xbe46415b	-0.19360869
199	0xbe510c0a	-0.20414749
200	0xbe1b327f	-0.15155981
201	0x3dad297f	0.084551804
202	0x3e26dae4	0.16294438
203	0x3dd45dea	0.10369475
204	0xbe15c328	-0.14625227
205	0x3e818ac5	0.25301185
206	0x3e00dbcb	0.12583844
207	0x3e49ed98	0.19719541
208	0x3e76fcf6	0.24119934
209	0x3e08ee39	0.13372125
210	0x3e1cdec8	0.1531936
211	0xbd7eea88	-0.062235385
212	0x3e1d6de1	0.15373947
213	0x3e872fd3	0.26403674
214	0x3d98b681	0.07456685
215	0x3dbb385c	0.09141609
216	0x3cd826a3	0.02638561
217	0x3d63804d	0.05554228
218	0x3d9959b3	0.07487812
219	0x3e7a3453	0.24434023
220	0xbd8bc660	-0.068249464
221	0x3e628810	0.22122216
222	0x3de2d601	0.11075974
223	0x3dc20538	0.09473652
224	0x3e476753	0.19473009
225	0xbe3d8a7a	-0.18509856
226	0x3e7fe94c	0.2499134
227	0x3db0e2dc	0.0863702
228	0x3e120e3b	0.14263241
229	0x3c5c41e2	0.013443442
230	0x3d7aa70d	0.06119447
231	0x3e4cd02f	0.2000129
232	0x3d330cf8	0.04371354
233	0xbd0be54c	-0.03415422
234	0x3e1f2eb5	0.15545161
235	0xbe63c986	-0.22244844
236	0xbe3f425a	-0.18677655
237	0xbca75cb6	-0.02042995
238	0x3c56b79d	0.0131053
239	0xbe36cbe3	-0.17851214
240	0x3dced5f2	0.100994006
241	0x3e0f266c	0.139795
242	0x3e3da82c	0.18521184
243	0x3d093732	0.033499904
244	0xbdd1e91d	-0.10249541
245	0xbe05426e	-0.13013622
246	0xbe5e2b42	-0.21696189
247	0x3e30562f	0.17220376
248	0x3e4e7116	0.20160326
249	0xbdfc6193	-0.12323298
250	0xbe01bbc2	-0.1266928
251	0xbdaa4ad0	-0.083150506
252	0xbe4a35de	-0.19747111
253	0x3e1e741e	0.15473983
254	0xbdf50f60	-0.11965823
255	0xbe0c1d7e	-0.13683125

fc1.bias f4 [50]
0	0x3deb1bea	0.114799336
1	0xbe184a17	-0.14872013
2	0xbd24baaa	-0.04021708
3	0xbca407ee	-0.020023312
4	0xbf045de6	-0.5170578
5	0xbdbadda1	-0.091243036
6	0xbc9766b0	-0.018481582
7	0x3e93ecb7	0.28891537
8	0xbee2fbd5	-0.44332758
9	0x3e1e3cf5	0.15452941
10	0xbe3c007d	-0.18359561
11	0xbeb1a937	-0.34699413
12	0x3df32d5c	0.11873886
13	0x3d1ad86f	0.037804063
14	0xbe5fe287	-0.21863757
15	0xbd44660b	-0.04794888
16	0xbe6e7526	-0.23286876
17	0xbe23c63c	-0.15993589
18	0x3e1f29bc	0.15543264
19	0xbe39b1a9	-0.18134178
20	0xbe09b8c1	-0.13449384
21	0xbe5445da	-0.20729771
22	0x3ec7deb2	0.3903709
23	0xbe4795a4	-0.19490677
24	0xbe9af480	-0.30264664
25	0x3e9252ea	0.28578883
26	0xbebe7be6	-0.37203902
27	0x3f341bee	0.7035512
28	0xbe9535ee	-0.29142708
29	0xbe8470cf	-0.25867316
30	0x3eadaef5	0.33922544
31	0x3eac94c2	0.33707243
32	0xbf09a508	-0.5376744
33	0xbe399395	-0.18122704
34	0xbd4692f0	-0.048479974
35	0xbe376231	-0.17908551
36	0xbcdcc954	-0.02695147
37	0x3f02fded	0.5116871
38	0x3e8702db	0.26369366
39	0xbeec37fe	-0.4613647
40	0xbe9dec81	-0.308445
41	0x3eba109f	0.36340806
42	0x3d463da7	0.04839864
43	0xbe1f7666	-0.15572509
44	0xbe2810cd	-0.16412659
45	0xbeba6918	-0.36408305
46	0xbe8b5e8e	-0.27220577
47	0x3a58ba4b	0.0008267506
48	0x3e1dedaf	0.154227
49	0xbda34c18	-0.07973498

fc2.weight f4 [10, 50]
0	0xbe8e111d	-0.2774743
1	0x3e1e9a82	0.15488628
2	0x3db1b71a	0.08677502
3	0x3e03cc62	0.12870935
4	0x3ee36607	0.44413778
5	0xbdafb25b	-0.085789405
6	0x3da06b4f	0.078329675
7	0xbdbdb2e7	-0.092626385
8	0x3f05ca51	0.52261835
9	0xbf0dfe91	-0.5546656
10	0x3e287706	0.16451654
11	0x3e890051	0.26758054
12	0xbdd2ba70	-0.102894664
13	0xbf57c39a	-0.8428284
14	0x3e168768	0.14700091
15	0x3ddb533c	0.10709235
16	0xbed22896	-0.4104659
17	0x3dd9132b	0.10599359
18	0xbd928cbd	-0.0715575
19	0x3e4b26bf	0.19838999
20	0x3cdc556e	0.026896205
21	0xbdcf4178	-0.10119909
22	0xbde4c890	-0.11171067
23	0x3c86389e	0.016384419
24	0x3ec2e0ab	0.38062033
25	0xbd813d63	-0.06310537
26	0x3e4441c4	0.19165713
27	0x3f495e6f	0.7865972
28	0xbd60b854	-0.05486329
29	0x3e4aa81e	0.19790694
30	0xbf4a4eb7	-0.7902636
31	0xbe5f8219	-0.21826972
32	0x3eb1ddd3	0.3473955
33	0x3c5f9a47	0.013647622
34	0xbdf23c6e	-0.11827932
35	0xbe03e778	-0.12881267
36	0x3e0b5a18	0.13608587
37	0xbf061ddc	-0.5238931
38	0x3d5bab9d	0.05363046
39	0x3f048d1d	0.5177782
40	0x3db26c22	0.08712031
41	0xbf04bfa1	-0.518549
42	0xbec2eca2	-0.38071162
43	0xbdeae45d	-0.11469338
44	0xbe05bd76	-0.13060555
45	0xbf8c72ff	-1.0972594
46	0x3d91bfda	0.07116671
47	0xbd3d4996	-0.046212755
48	0xbca51a62	-0.020154182
49	0xbe9eb4a6	-0.309972
50	0xbe2133a9	-0.15742363
51	0x3e1a5cfa	0.1507453
52	0x3d4f1ae9	0.050562773
53	0x3db40671	0.08790291
54	0x3f2a8613	0.6661083
55	0x3def010f	0.11670124
56	0x3df88596	0.121348545
57	0xbe428b4d	-0.18998452
58	0x3ee66cfb	0.4500502
59	0xbf11ea23	-0.5699789
60	0x3e0bf860	0.13668966
61	0x3ed4f8f1	0.41596177
62	0xbe03c388	-0.12867558
63	0xbf4fe1ad	-0.8120373
64	0x3dbd73b8	0.09250587
65	0xbdd1e42e	-0.102486
66	0x3d130b53	0.03589947
67	0x3dbcae6a	0.09212954
68	0xbe0884e0	-0.13331938
69	0x3e83b0c0	0.25720787
70	0x3dfd8bed	0.12380204
71	0x3d66fc37	0.056392875
72	0xbe5eb5c8	-0.21749032
73	0x3d8176ae	0.063214645
74	0x3dc5ce5a	0.09658499
75	0xbdccf8e8	-0.100084126
76	0x3e37db03	0.1795464
77	0x3f321652	0.6956531
78	0xbcb7f8c2	-0.022457484
79	0x3dbbbee1	0.09167267
80	0xbf2d3e67	-0.67673343
81	0xbeb30236	-0.34962624
82	0x3ea84bfd	0.32870474
83	0xbd97c4a6	-0.074105546
84	0x3bce061b	0.006287349
85	0xbb81a13b	-0.0039559877
86	0x3dcb7e80	0.09936237
87	0xbefd34c1	-0.4945431
88	0xbe462749	-0.19350924
89	0x3ef6a199	0.48170164
90	0x3deae1b1	0.114688285
91	0xbeff0964	-0.49811852
92	0xbee750f7	-0.4517896
93	0xbd8559da	-0.065112785
94	0x3da685bb	0.08130976
95	0xbf891c40	-1.0711746
96	0x3b5c06e3	0.003357344
97	0x3db1b565	0.086771764
98	0xbdf16136	-0.1178612
99	0xbe904de5	-0.2818443
100	0xbd8ec426	-0.06971006
101	0x3d354254	0.04425271
102	0xbd90ec3a	-0.07076307
103	0x3d0f2947	0.034951475
104	0x3ed5ed0a	0.4178241
105	0xbd092717	-0.033484545
106	0xbd9ab654	-0.075543076
107	0xbdcac4f1	-0.09900845
108	0x3f172bdb	0.59051293
109	0xbf05e879	-0.5230785
110	0xba9d8fe2	-0.001202103
111	0x3ea2546c	0.31705034
112	0xbd61a011	-0.05508429
113	0xbf3b58ec	-0.7318256
114	0x3e12e2d6	0.14344344
115	0xbe0fd567	-0.1404625
116	0x3e85ffa3	0.26171598
117	0x3d8d1897	0.06889456
118	0xbd3a4cad	-0.04548328
119	0x3d29e86b	0.041481417
120	0xbd8cabcf	-0.068687074
121	0x3d6e54bf	0.05818629
122	0xbe12dfe5	-0.14343221
123	0xbdfc7abe	-0.12328099
124	0x3e089c66	0.13340911
125	0x3db4e744	0.08833173
126	0x3e303cc2	0.17210677
127	0x3f2d2c45	0.67645675
128	0x3e559107	0.20856105
129	0xbc35722b	-0.011074583
130	0xbf1f4f5a	-0.62230456
131	0xbed5ccde	-0.41757864
132	0x3ee798bb	0.45233712
133	0xbd743688	-0.059622318
134	0xbd78c303	-0.060732853
135	0xbddd9629	-0.108196564
136	0x3d2d61d6	0.04232963
137	0xbf0370a1	-0.51343733
138	0xbdcfe715	-0.10151497
139	0x3f0b658a	0.5445181
140	0x3e83f9c5	0.25776497
141	0xbed47507	-0.41495535
142	0xbef7022f	-0.48243853
143	0xbdb9dbbe	-0.090751156
144	0xbdc9a09e	-0.098450884
145	0xbf91fcd9	-1.1405288
146	0x3e23b279	0.1598605
147	0x3dcdf3c4	0.1005626
148	0x3ddb124d	0.1069685
149	0xbe3c1a36	-0.18369374
150	0xbe242d66	-0.16032943
151	0xbdec8876	-0.11549465
152	0x3d3114bc	0.043232664
153	0x3d26bfc4	0.040710226
154	0x3eea79e0	0.45796108
155	0x3da78114	0.081789166
156	0x3ce84523	0.02835328
157	0xbc2609a8	-0.010134138
158	0x3f31a37f	0.693901
159	0xbf16a793	-0.5884945
160	0x3db4e84b	0.08833369
161	0x3ef29245	0.4737722
162	0x3e04421d	0.12915845
163	0xbf3da934	-0.7408631
164	0x3e27a7b5	0.16372569
165	0x3dec87ed	0.11549363
166	0x3ec314a4	0.38101685
167	0x3e256e21	0.16155292
168	0x3d74642d	0.059665848
169	0x3ce27c5f	0.027647195
170	0x3d986c5e	0.074425444
171	0x3cd5960f	0.02607253
172	0x3d43307c	0.04765366
173	0xbc31d42c	-0.010853808
174	0x3e23de8e	0.16002867
175	0xbde06f6d	-0.10958753
176	0x3e078557	0.13234459
177	0x3f1f21d7	0.6216101
178	0x3d41dcf1	0.047329847
179	0xbda55e6f	-0.080746524
180	0xbf4168fd	-0.75550824
181	0xbe119132	-0.14215544
182	0x3eddaa21	0.4329386
183	0xbdbc17c1	-0.09184218
184	0xbc77f7e1	-0.0151347825
185	0x3e042651	0.12905242
186	0x3dd1f3dd	0.10251591
187	0xbed5cc0d	-0.4175724
188	0xbde8ccf6	-0.11367218
189	0x3ef83f0d	0.48485604
190	0x3e3afe4c	0.18261069
191	0xbea9ac1b	-0.3313912
192	0xbeefb8d6	-0.46820706
193	0xbe006cd8	-0.1254152
194	0xbd8442c6	-0.064580485
195	0xbfa50b45	-1.2894064
196	0x3e2cebdd	0.1688685
197	0xbe09ec36	-0.13469014
198	0x3d93ec2c	0.072227806
199	0xbd62d585	-0.05537941
200	0xbebf1adf	-0.3732519
201	0x3d3f1678	0.046652287
202	0xbdf86ef0	-0.12130535
203	0xbd96b53b	-0.07358786
204	0x3edb2bdb	0.42806897
205	0x3ddc0409	0.10742957
206	0xbdeedd70	-0.116633296
207	0xbd40b11e	-0.047043912
208	0x3f2a90bc	0.666271
209	0xbec1f5d7	-0.37882873
210	0x3dc39f4a	0.09551866
211	0x3e4443c7	0.1916648
212	0x3dc98aef	0.098409526
213	0xbf353fbf	-0.70800394
214	0x3d4f9394	0.05067785
215	0x3df056d0	0.11735308
216	0x3f162c97	0.5866179
217	0x3d86ad85	0.06576065
218	0xbd28ec64	-0.041241065
219	0x3d81f022	0.0634463
220	0x3ca791ff	0.020455359
221	0xbcf840fe	-0.030304428
222	0xbe487a56	-0.19577917
223	0x3dfcc463	0.12342145
224	0x3ea9daf6	0.33174866
225	0xbd2dce89	-0.042433295
226	0x3e6ea242	0.23304084
227	0x3f0fc7ba	0.56164134
228	0x3c951dff	0.01820278
229	0x3d4cac64	0.049969092
230	0xbf35af25	-0.70970374
231	0xbd91dbc4	-0.07121995
232	0x3efd0b4b	0.49422678
233	0x3deab4f1	0.11460293
234	0x3e065d24	0.13121468
235	0xbde12678	-0.109936655
236	0x3e274e09	0.16338362
237	0xbe9e94d8	-0.30972934
238	0xbcd65d92	-0.026167665
239	0x3efe34f1	0.49649766
240	0x3e9c0aa5	0.3047687
241	0xbee8e911	-0.45490316
242	0xbf121e96	-0.5707792
243	0x3d426b33	0.047465514
244	0x3d50aa25	0.050943512
245	0xbfad8969	-1.3557559
246	0x3e870897	0.2637374
247	0xbdc0df25	-0.094175614
248	0x3d3db8cf	0.046318825
249	0xbc17a874	-0.009256471
250	0xbdb88116	-0.09008996
251	0xbdaad591	-0.08341516
252	0xbc9ba260	-0.018998325
253	0x3dbe281a	0.092849925
254	0x3f002899	0.5006195
255	0x3e106cd9	0.14104022

fc2.bias f4 [10]
0	0xbe5b5865	-0.21420439
1	0xbcdc7669	-0.026911931
2	0xbdc59d88	-0.09649187
3	0xbe5eae01	-0.21746065
4	0xbdd0d7ee	-0.10197435
5	0xbc14eb37	-0.009089283
6	0xbcdf4768	-0.027255729
7	0xbdd7888f	-0.10524093
8	0xbddff382	-0.10935117
9	0x3a696814	0.00089037535
