model_checkpoint.pth (torch, 2328 bytes, 4 tensors)

fc1.weight f4 [2, 5]
0	0xbd57b8bb	-0.052666407
1	0xbe832c70	-0.2561984
2	0xbe45e466	-0.19325408
3	0x3da6af6f	0.0813893
4	0xbe44cfd9	-0.19219913
5	0xbe185417	-0.14875828
6	0xbe8eea47	-0.27913114
7	0xbe1120aa	-0.14172617
8	0x3d849041	0.06472827
9	0xbd95456a	-0.0728863

fc1.bias f4 [2]
0	0x3eb4133c	0.35170925
1	0x3d61bce5	0.055111784

fc2.weight f4 [5, 2]
0	0x2b93b474	1.0495064e-12
1	0x3ddd46e4	0.10804537
2	0xad1f8d31	-9.069454e-12
3	0x3e790ca1	0.24321224
4	0x3182606d	3.7944603e-09
5	0xbf01044f	-0.503972
6	0xbe2abc71	-0.16673447
7	0x3ebf28cf	0.37335822
8	0xba9b1922	-0.0011833052
9	0x3dc233f5	0.09482566

fc2.bias f4 [5]
0	0x28cd9bb0	2.282709e-14
1	0xbe7729f5	-0.24137099
2	0x3f800000	1.0
3	0x3f049fe6	0.51806486
4	0x3e5a56b1	0.21322133
