motor_model.pth (torch, 2672 bytes, 4 tensors)

fc1.weight f4 [4, 5]
00000000: 4718 b5be e3ec 6ebc e52b d03d 78b3 8c3e
00000010: bf91 b0bd 95a7 d1be 3be7 9fbe 02dc 58bd
00000020: 62d3 2d3f 7ba8 613f fff9 afbe 281a c23d
00000030: 7e2e c33d 9f54 70be 9e9c a1be 4108 ae3e
00000040: 0d7f ca3b 6410 d23d 92dc 18be e2e7 b13e
-0.35370085 -0.014582845 0.10164622 0.27480674 -0.08621549 -0.40948167 -0.31231102 -0.05294419
0.6790067 0.88147706 -0.3437042 0.09477645 0.09530352 -0.2346978 -0.31564802 0.33990672
0.0061796964 0.102570325 -0.14927891 0.34747225

fc1.bias f4 [4]
00000000: ad47 56be e35c 8c3f 55fe 353e 74da 043e
-0.2092578 1.0965847 0.17772801 0.12973958

fc2.weight f4 [5, 4]
00000000: 00dd 223e 884f a9b9 a4ee 833e 385a d53e
00000010: adac 03bd 1025 11b8 501d 463e 7741 253e
00000020: d1ae a7be 8fa1 1939 7c7c f53e 729e 1b3e
00000030: d9b2 d13e 9b15 49bc 0ebe 7cbe db76 273e
00000040: 8602 b73e d0ad d0b9 858a fcbc b240 a73e
0.15904617 -0.00032293447 0.25768006 0.41670394 -0.0321471 -3.460521e-05 0.1934712 0.16138254
-0.32750562 0.00014651402 0.47946537 0.15197161 0.40956762 -0.012273218 -0.24681875 0.16353934
0.35744113 -0.00039802352 -0.03082777 0.32666546

fc2.bias f4 [5]
00000000: 5084 8ab9 1102 80bf 8401 803f 61cc fc3e
00000010: 409c ee3a
-0.00026419992 -1.0000631 1.0000463 0.4937468 0.0018204525
